object_tracking/hand_control_model.pth (torch, 51695 bytes, 8 tensors)

hidden1.weight f4 [32, 42]
00000000: 353a 5dbe 37ac eebc 6af1 42be 5c40 2c3e
00000010: ff93 af3d 0b7b 033e 560e 893d d3be 193e
00000020: 5a84 11bb fd0e 203e 24e7 3cbe c4d2 193e
00000030: 99b4 8e3d bff6 eb3d 7dd1 693d 1555 593d
00000040: 80bc 923d 1325 b2be be63 88bd c711 4d3e
00000050: 2454 a1bd fbef be3c b589 4f3d ba77 ca3d
00000060: e7cd bc3d dedc 30be 9e88 3cbd 6959 22bd
00000070: 7f32 ec3c 7f4d efbc 5266 013e 97d9 d43c
00000080: 1d18 403e d93c 60be 9fc1 48be 528a cabc
00000090: a07b 1fbe 3e55 873d 7a68 ec3d 83db 32bd
000000a0: 0cbf a73d 68e2 6ebc f939 003e 3a36 abbd
000000b0: c826 ad3d 1e82 c23d 5066 393c d2b3 e33d
000000c0: d2ec 6bbd e2bc 17be 6cc2 1a3d 21ac 01be
000000d0: ad9e 06be 4003 f63b 5dac 14be ae75 e53d
000000e0: 6e0a e73d 80c7 ccbb 2430 d5bd 570e e7bd
000000f0: de16 60bd 30d9 643d fb60 11be f522 04be
00000100: a8a6 ccbd 92ba 0cbe 58ef bbbd c268 af3d
00000110: 3870 b9bd 001f c9bb 1ac3 ee3d 0050 e1ba
00000120: 081d cd3c 4e83 e6bd e658 cebd 22a3 d23d
00000130: f438 eabd 8377 9cbd b067 283d 724f 1ebd
00000140: 03db 16be 027a dbbd a86a 283d c0c7 63bc
00000150: f82f 2fbc ea91 59bd 9725 b6bd 548c 123e
00000160: ed6f 193d 58a4 b4bc 38a8 49bd bd00 07be
00000170: 9f8b 593c d5d8 ccbd 9f29 0c3d 1342 9338
00000180: ceae 113e 0831 dcbd 791c 8d3d f8c5 453d
00000190: da98 0d3e fc54 95bd 5993 9dbd 572e 42bd
000001a0: 8eb2 c73d b0c9 9e3d ad96 983b 8290 22bd
000001b0: 11b8 1abe 6a9b 0cbd a823 f5bd bca5 713c
000001c0: 65a9 67bd 370a 87bd 2d1c c43d 16ad f4bc
000001d0: 0617 c8bc 8ea5 c33d 07a6 3fbd 9c15 0c3e
000001e0: 91b9 dabd 085c 603c 85d0 683c 0a78 0b3e
000001f0: b3e0 ecbd 89bb 143c 9a7f 77bd cac6 ee3d
00000200: 20c4 b03d fdf7 febd 516d f7bd 50e7 a3bc
00000210: f029 1f3c b644 9a3d f9e6 163e fa6b 15be
00000220: f083 7bbc fa63 e43d 5cde 803d 086f 123d
00000230: 822e 983d 54cb eebd 7974 ffbd 33d2 0fbe
00000240: 8edc d13d aa43 0fbe 4c78 bebd f46d 2dbd
00000250: a01f b73c 48b6 d03c 41e5 bdbd 2123 0abe
00000260: a116 18be 1266 eabd 2868 9abc 991d 163e
00000270: 4c57 8dbd ed8c 173e 8cbb 3c3d 80a9 623b
00000280: 3879 863c 1013 21bd 3ed0 a83d 75fc 063e
00000290: f085 dcbc f213 04be e5ab 023e 7aaf 88bd
000002a0: 386a 863d 1a25 c63d 14fc b7bd 1f64 053e
000002b0: 98e9 d6bd 076c 16be 883d 743d 80ac 3dbb
000002c0: b4ae 653d 9454 06be 229b a33d 3c5f 7bbd
000002d0: f6c8 cd3d da2e c2bd c0eb 843d a0b0 b0bc
000002e0: 4f4e 06be ba9f ea3d f4a7 6ebd a248 82bd
000002f0: 80d0 d5bd c5f4 1b3e a2f6 f33d 7a9c 0cbe
00000300: a08d c8bb 2a00 a8bd 57e9 1cbe 63dc febd
00000310: 0880 e73c 6e0d 05be 32e1 d03d 1f7c 0b3e
00000320: 861d cf3d 30b1 383c 4b9a 143e e207 e1bd
00000330: dc2c adbd 903f 1f3d 9ac0 afbd d008 3c3c
00000340: 0323 0fbe 6ab5 51bd e214 a1bc 4f1b 26be
00000350: 38ed fc3d 2803 ac3c 38d7 dabb f786 e53d
00000360: eb5f 9f3d ab31 a8bd 5633 a73d c030 8cbd
00000370: d836 80bd b46f d73d 3506 803c daf8 17be
00000380: 1e20 f2bd 7132 9bbd e5bf a03d 06ad e0bd
00000390: 7c90 b5bc 4c68 b8bd 4902 bfbd f021 1ebd
000003a0: 0fd7 d73d 4526 d23c 33f7 053d 220e a7bd
000003b0: 0b7e a13d d9af 54bd 21ee 853d bb9b 07be
000003c0: aead 52bc 345f 9d3b 00c1 2fbe 0209 c63d
000003d0: 2ffc ffbd c835 ab3c c41d 293d 55c2 ebbd
000003e0: 2279 a2bd ffc5 c4bd 683d ce3d 5f68 e23c
000003f0: 264b 21be 0668 71bd 6ae1 57bb 4641 b6bd
-0.21604235 -0.029134853 -0.19037405 0.16821426 0.0857315 0.12839906 0.066921875 0.150142
-0.0022204132 0.15630718 -0.18447548 0.15021807 0.0696804 0.115216725 0.05708455 0.053059656
0.0716486 -0.3479391 -0.06659649 0.20026313 -0.07877377 0.023307791 0.050668437 0.09886117
0.0921896 -0.17271754 -0.046028726 -0.03963605 0.028832672 -0.029211758 0.12636688 0.025982661
0.18759198 -0.21898212 -0.1960511 -0.02472416 -0.15574503 0.066080555 0.11543365 -0.043666374
0.08190736 -0.014580347 0.12522115 -0.08359952 0.084546626 0.09497474 0.011315897 0.111182824
-0.057598896 -0.14818147 0.03778307 -0.12663318 -0.13146468 0.0075077116 -0.14518876 0.11204086
0.11281286 -0.006249368 -0.10409573 -0.11282032 -0.054709308 0.05587119 -0.14197151 -0.1290396
-0.09992725 -0.13743046 -0.091765106 0.08564903 -0.09054607 -0.0061377287 0.116583064 -0.001718998
0.025038257 -0.11255513 -0.1007555 0.10285021 -0.11436644 -0.076399826 0.04111451 -0.038649984
-0.14731984 -0.107166305 0.04111734 -0.013902605 -0.010692589 -0.05311767 -0.088938884 0.14311343
0.037460256 -0.022051021 -0.04923269 -0.13183875 0.013277917 -0.10002295 0.03421938 7.0218135e-05
0.14226839 -0.107515395 0.06890196 0.0482845 0.1382784 -0.072916 -0.0769412 -0.047407474
0.097508535 0.077533126 0.004656634 -0.039688595 -0.15109278 -0.034327902 -0.119696915 0.014748987
-0.05655803 -0.06593745 0.095756866 -0.02986769 -0.02442504 0.095530614 -0.046789195 0.13680118
-0.10679925 0.013693817 0.014209871 0.1362001 -0.115662955 0.009077915 -0.060424425 0.1165901
0.08631158 -0.12449644 -0.12081397 -0.02000776 0.0097145885 0.07532637 0.14736547 -0.14591971
-0.015351281 0.111518815 0.06292412 0.03575042 0.07430746 -0.116598755 -0.12473387 -0.14045028
0.102471456 -0.13990656 -0.093002886 -0.042341188 0.022353947 0.025477543 -0.09272242 -0.13489963
-0.14852382 -0.114452496 -0.018848494 0.14659728 -0.06901416 0.14799853 0.046077296 0.0034585893
0.016415223 -0.03932482 0.08242844 0.13182242 -0.026919335 -0.12898234 0.12760885 -0.066740945
0.06563228 0.09675045 -0.08983627 0.13026474 -0.10493773 -0.14689647 0.059628993 -0.002894193
0.056074813 -0.13118201 0.079885736 -0.06137012 0.10048096 -0.094815925 0.06490278 -0.021568596
-0.1311581 0.11456247 -0.05826564 -0.0636151 -0.10440159 0.15230091 0.11912276 -0.13731566
-0.0061203986 -0.08203156 -0.15323387 -0.12444379 0.028259292 -0.12993404 0.101992026 0.13621567
0.10113053 0.011272714 0.14511983 -0.10987832 -0.08455822 0.038878977 -0.08581658 0.01147671
-0.139782 -0.0511984 -0.019663278 -0.16221355 0.123499334 0.020997599 -0.006678488 0.11207383
0.07781967 -0.082125984 0.081640884 -0.06845236 -0.062604606 0.105193526 0.01562796 -0.14841023
-0.11822532 -0.0757798 0.07849101 -0.109705016 -0.022163622 -0.09004268 -0.09326608 -0.038606584
0.10539066 0.025653014 0.03270645 -0.081569925 0.07885369 -0.051925514 0.0653956 -0.13243
-0.012858791 0.004802609 -0.17163467 0.09669687 -0.12499272 0.020899668 0.041288152 -0.11511675
-0.079332605 -0.09608077 0.10070306 0.027637659 -0.15751323 -0.058937095 -0.0032940754 -0.08899169

hidden1.bias f4 [32]
00000000: f672 073e 7274 33bd 84fc 4e3d 0041 613b
00000010: fa52 22bd f463 013e dde6 df3d 901c aa3d
00000020: 6f4a c23d d41a cb3a 62b9 083e a458 87bd
00000030: f4bb 0dbe 929f e23d 8320 ce3b d95e 543d
00000040: 2f51 0a3e af95 133e 766a d4bd e2bb 033e
00000050: 86c6 8a3c 6bdc 1f3d 6100 793d aca3 f23d
00000060: 09ae 15be 0b10 0d3e c4ec 06be 5390 f33d
00000070: f4f8 4e3d f62b 973d 5090 c1bc 46a3 093d
0.13227448 -0.043812223 0.050533786 0.0034371018 -0.039629914 0.12635785 0.109327056 0.08306229
0.09486853 0.0015495666 0.13351968 -0.06608704 -0.1384123 0.11065592 0.006290497 0.051848266
0.13507532 0.14412569 -0.10371868 0.1286464 0.016940366 0.039028566 0.060791377 0.11847624
-0.1461717 0.13775651 -0.13176256 0.11892762 0.05053039 0.07381432 -0.023628384 0.033602975

hidden2.weight f4 [64, 32]
00000000: 9485 49bd 931c 28be 2964 893d d813 ba3c
00000010: 688f 30be 9ee6 c33d f997 09be 665e b2bd
00000020: 2743 d33d 1e2a c73d 0fca dc3d b7c0 05be
00000030: 10a7 4d3d 8cae 87bd b04e 2cbd c6d1 223e
00000040: 87bd 553d 4512 94bd 865d 963d d886 31be
00000050: 135c f6bd 2062 cbbd 2512 aa3d 4537 9bbc
00000060: c27e 333d 36ef 513d db10 e13d 6cd0 c8bd
00000070: 90b8 0d3d 6e2d e9bd 009f 413a 7c94 cb3d
00000080: b42e 923d f6c2 a0bd 389c 0fbe b239 fb3d
00000090: e6ac e73d ac3b 963d b487 97bb f96b a23d
000000a0: 8dfb 133e df3b 2f3e f412 fbbd ad83 3bbe
000000b0: 223c 203e 4dd0 f23d 1d80 a53d d45a 06be
000000c0: 253e 253e d83e cdbd 9c96 c0bd 2b46 043d
000000d0: 6bba 82bc a69b 383d 716d c13d 656e 71bd
000000e0: 3682 f23d 2bca 09be e5c2 d4bc 704b 17bd
000000f0: 271a 2f3e b1e8 013e daea 73bd 36d0 2d3c
00000100: c816 7bbd 41cd 11be 0245 09be 2a63 17be
00000110: aee1 aabd 08ec 6d3d 2ce7 083e f559 093e
00000120: 4e37 c3bc 8e73 ddbd 6932 ad3d 29d7 16bb
00000130: 029d 93bd a8b3 26be 6fc2 063e b381 333e
00000140: 5a8f b5bd e9d4 67bd 623c d2bd e945 253d
00000150: e79e 6cbd c55b b43b b8ba 01be c175 20be
00000160: 9635 29be 916c 25be 5bf3 323e a2c2 cbbc
00000170: 6c09 17bd 30e5 28bd 90b3 f8bd 7cc8 1ebd
00000180: f8fd 9fbc 6c82 3d3d da1a 283e 98b2 6f3d
00000190: 2c7d 203d 8441 96bd 7fc9 bb3d a917 013e
000001a0: 3a0e 103d 917a 943d cd07 66be a961 1abe
000001b0: 34a1 b13d 21e0 fa3d 4faf 04be 884c b73b
000001c0: 28ba 9e3c 8cb8 2b3e 3561 193e fc38 01be
000001d0: b20f fe3d b49f 2dbe 418f 593c 9b88 593e
000001e0: 14aa 0cbe ebf8 e73d 25f8 51bd 4d6e 81bd
000001f0: 8406 71bd 2e5d b73c 0e46 bd3d 5794 2b3e
00000200: f8a7 783d 226a cebd aa23 003e 19ef 01be
00000210: c99d 1d3e dd45 913d 2765 b9bd 73c8 e9bd
00000220: 5186 92bd b9d8 ae3d 7c04 043d aab6 f03d
00000230: a440 953c 94d1 013d f931 2b3d 3fe3 19be
00000240: c7f7 1abd 9a83 1c3d 4854 a83c 3190 be3c
00000250: 564a dd3d 937b 953c e05a 2bbd 341d f83c
00000260: 3048 28bd 3534 0c3e 1bb2 b13d faa4 e0bd
00000270: 80bf a7bd a087 9bbd 66c7 983d 79ad d23d
00000280: 9a61 89bd 5c3c 1abd c4e8 7bbd cc2b e7bd
00000290: ec0e 11be 9071 f5bd 5cb7 fa3d 3e12 1f3c
000002a0: db6d 01be 652b 1b3e f552 fc3d 6272 15bd
000002b0: 81e1 0a3d ab3b 0c3e 83f8 f83d a913 04be
000002c0: 3227 62bd 33e6 bd3d c897 d7bd 8f18 17be
000002d0: d408 26bd 7d7b 283e 174b cb3d 1009 0bbe
000002e0: 4fea 053e 9739 d8ba 9bed 273e 022d e6bc
000002f0: 9e15 f13d c4ad f6bd 50f7 ffbc 4855 9abd
00000300: 87d4 d73c ec5e 03be 517e 17bd b814 923c
00000310: a036 8cbc 5f69 46bc 6b2f eabd 0c4a 2bbe
00000320: f309 97bd 1623 653c 58e5 bd3d fcdd fd3d
00000330: a9ca 91bd 6e16 1cbe 2197 ab3d ce29 f63d
00000340: 39e6 bdbd f58c 0a3e 4cd7 37bd d4a2 30bc
00000350: 48e8 273e f997 8cbd a82a 1bbe 265b ba3d
00000360: 5411 443e 25e1 2bbd 0094 14be 8537 cf3d
00000370: 006f 783d b338 26be 6b07 0f3e 2d0a 41be
00000380: 754d 143d 882c f63c dbe4 6c3c b0db 2ebe
00000390: 2eab 8abd 3467 ae3d 2ff7 cf3c 3317 a93d
000003a0: 37c3 413d 348f 31be 00a5 cf3b 727f 02be
000003b0: 248f e43c 7e96 823a 2320 13be 48e7 37be
000003c0: 488d 97bd 532c 113e f87e 33be 4009 14be
000003d0: 86df 27bc fbcb 8d3c e768 32be 7276 f33d
000003e0: 920a 1c3e f6ad 16bd f8b6 473d f883 b03d
000003f0: b2d3 d23d 478b b5bd 2ece fb3d c5b9 17be
-0.049199656 -0.1641715 0.06708557 0.02271454 -0.17242205 0.09565471 -0.13436879 -0.08709411
0.10315543 0.0972483 0.10780727 -0.13061796 0.05020815 -0.06625089 -0.04206723 0.15900335
0.0521827 -0.07230047 0.07342057 -0.17336595 -0.120292805 -0.09930825 0.08304242 -0.018947253
0.043822058 0.05125352 0.10989543 -0.09805378 0.03459984 -0.11385618 0.00073860586 0.099404305
0.07137814 -0.07849686 -0.14024436 0.12266864 0.11312275 0.073356 -0.0046243314 0.079307504
0.14451428 0.17112683 -0.122594744 -0.18311949 0.15647939 0.118561365 0.08081076 -0.13120586
0.16136988 -0.10021752 -0.094037265 0.03229348 -0.015958032 0.045070313 0.094447024 -0.05894317
0.11841242 -0.13456027 -0.02597184 -0.036937177 0.1709982 0.12686421 -0.059550144 0.010608723
-0.061301023 -0.14238454 -0.1340523 -0.14783922 -0.08343826 0.058086425 0.13369435 0.13413222
-0.023830082 -0.10813056 0.084568806 -0.002301643 -0.07207681 -0.16279471 0.13160108 0.17529945
-0.08865233 -0.05659953 -0.10265423 0.040349875 -0.05776873 0.005504104 -0.12668884 -0.1566992
-0.16524348 -0.16154696 0.17475645 -0.024873082 -0.03687422 -0.041234195 -0.12143624 -0.038765416
-0.019530281 0.046266958 0.16416493 0.05851993 0.039181873 -0.07336715 0.09169292 0.12606682
0.035169818 0.0724994 -0.22463913 -0.15076317 0.08673325 0.122497804 -0.129575 0.00559384
0.019375876 0.16769618 0.14978488 -0.12619394 0.124053374 -0.16955453 0.013278783 0.21243517
-0.13736755 0.11326774 -0.05126204 -0.06319866 -0.058844104 0.022383299 0.092418775 0.16755806
0.060707062 -0.10078837 0.12513605 -0.12688865 0.15392222 0.070934035 -0.090524964 -0.11415186
-0.07154525 0.0853743 0.03223084 0.117535904 0.0182193 0.03169401 0.041795705 -0.15028094
-0.037833955 0.038211443 0.020548001 0.023262115 0.10805194 0.018247401 -0.041834712 0.030287363
-0.04108447 0.1369179 0.08676549 -0.10968967 -0.081908226 -0.07594228 0.07459907 0.102869935
-0.06708069 -0.03765522 -0.06150128 -0.112876505 -0.14165848 -0.11984551 0.12242004 0.009708939
-0.12639563 0.15153272 0.1232051 -0.036486037 0.033906464 0.13694637 0.12156775 -0.12898125
-0.05521316 0.09272423 -0.10526997 -0.14755462 -0.040535763 0.16453357 0.099264316 -0.13577676
0.13077663 -0.0016496655 0.16399233 -0.028097633 0.11771701 -0.12044862 -0.031245857 -0.07535797
0.026346458 -0.12829179 -0.0369857 0.017832145 -0.017115891 -0.012110083 -0.114348255 -0.16727465
-0.073749445 0.013985416 0.092722595 0.12395856 -0.071187325 -0.15242931 0.08378435 0.12019692
-0.09272427 0.13530333 -0.044883057 -0.010781009 0.16397202 -0.06864924 -0.15152991 0.090994164
0.19147235 -0.04196276 -0.14509583 0.101180114 0.060652733 -0.16232567 0.13967673 -0.18851538
0.03620668 0.030050531 0.01445886 -0.17075992 -0.06770931 0.08515778 0.025386421 0.08256378
0.047305312 -0.17339784 0.006336808 -0.12743929 0.027900286 0.0009963063 -0.14367728 -0.1795932
-0.07399994 0.14177065 -0.17528903 -0.14456654 -0.010246163 0.01730918 -0.1742283 0.11887826
0.15238407 -0.036786996 0.048758477 0.08618921 0.10294284 -0.08864456 0.12295185 -0.14816959

hidden2.bias f4 [64]
00000000: d461 fd3d 5d06 163e 1733 853d dd65 1cbe
00000010: a951 263d e256 e3bd 5593 6cbc b06f babc
00000020: 5dfa af3d 9eba 08be 8655 173d b0c4 32be
00000030: e58e a6bc 3470 1a3e 5a0f 32be eb21 063e
00000040: e321 e33d 236f 38bd 6b38 55bd 9df2 2c3e
00000050: fe93 973d 43ad 8c3c 5ba7 113e ee32 febc
00000060: 893d b0bd 9b24 233d 42cf 9abd 74e4 d5bd
00000070: ac17 10be 1d50 f6bb d926 d43c 9c8d 733b
00000080: 5505 3cbd 8749 d8bb 9115 6ebd 0971 31be
00000090: 06e1 2a3d 5f50 54bc 463a 03be 383f 92bd
000000a0: ad20 b5bd 016c 24be c5de ac3d 88b1 aebc
000000b0: 04d8 933d 64ac 2bbe a2e8 1fbe 93cc 2cbe
000000c0: ddba a4bd f77a ec3c 9e03 ddbc 1bf0 613d
000000d0: feb0 02be 976b 913d 4e89 9dbd 0559 6abd
000000e0: 52c4 28be ec07 fc3a 585f 5b3c 4664 8bbd
000000f0: 82da 11be 00d9 28bc fe28 a9bc 52cb d53c
0.12372175 0.14650865 0.06503885 -0.15273233 0.04060522 -0.11100556 -0.014439424 -0.022758335
0.08592675 -0.13352439 0.036946796 -0.17457843 -0.02033181 0.15081865 -0.17388669 0.13098876
0.11090448 -0.045027863 -0.052055757 0.16889425 0.07401274 0.017172461 0.14223997 -0.031030145
-0.08605487 0.03982983 -0.075590625 -0.104439646 -0.1407153 -0.0075168745 0.02589743 0.0037163263
-0.045903523 -0.006600562 -0.058126036 -0.17328276 0.041718505 -0.012958615 -0.12815198 -0.07140964
-0.08844123 -0.16056825 0.084409274 -0.021324888 0.07218936 -0.1676498 -0.15616086 -0.16874914
-0.08043454 0.028867228 -0.026979264 0.055160623 -0.1276283 0.07100599 -0.076922044 -0.057213802
-0.1648114 0.0019228435 0.013389431 -0.06806235 -0.1424351 -0.010305643 -0.02064943 0.026097927

hidden3.weight f4 [128, 64]
00000000: ce12 853d 07ef 9d3c d926 f0bc 138c 9bbd
00000010: bbdd 2b3c d648 98bd 09c8 04bd 250c bcb6
00000020: 5da1 f23d 6433 e73c a08a f23d 6b21 93bc
00000030: 6845 80bd 9ec2 c4bc d2e9 79bd 2cdb ce3d
00000040: 5168 67bc dd33 a43d 95f9 a8bd c612 173d
00000050: 9094 713d ed76 d5bd 1964 c9bd d0c8 c4bd
00000060: 0924 043d 26e8 263c f318 efbc 328e 87ba
00000070: 07c1 d63d c74f 98bb 3ddc e5bd e3a0 c5bd
00000080: e2e1 bc3d 7b95 99bc 76ea c33d c55e dcbd
00000090: 95b8 6b3d 163d 65bd 6ba9 983d a05f 133d
000000a0: 6c8f 00ba 9c7f 09bd 9227 52bd cf7f fb3d
000000b0: 55cd 283d fd2a 113d 8d3b 72bd 061c 3d3d
000000c0: 13dc 453d 3927 8bbd 5aca b33d 5373 3cbd
000000d0: 404c 6abd 1726 83bd 4c7b f3bd 0733 ddbb
000000e0: 24c0 403d e8fc cb3d 23fc 503d fcf4 813d
000000f0: 9c6c 04bb 7d0f adbd 702a c43d 2b52 edbd
00000100: 63d8 efbc 8da2 b7bd f06c fcbd 8979 ccbd
00000110: 2281 86bd d00b f03d 8a41 debd eada fabd
00000120: b8b7 dfbc af15 92bd f08b 94bd 0596 a93d
00000130: 09a2 d33c d428 b9ba 0de8 4dbd f028 9bbd
00000140: d275 753d 334b cdbd 5a57 d63d 0fdc 17bd
00000150: edd8 b4bc daf4 ed3b 66b9 aa3c e053 9a3d
00000160: 13fc d03d da63 e7bd 6429 ea3d e8b6 ee3d
00000170: 5a6e e53d fccf 23bb 6ccc 773d 902f db3c
00000180: 994f 80bd 9a6a 923d 2cfb ccbd c14c 863d
00000190: 98d6 023d 3e33 edbc 178d b83d 6a80 e13d
000001a0: 4251 dd3c a603 2dbd 7a9a c23d 1a60 9bbd
000001b0: 450f 033d 4fb6 f3bd 1554 e63d 15c6 46bd
000001c0: 75a8 603d 754b cf3b 2664 c6bd 5057 f0bd
000001d0: 5c79 fdbd c557 e53d b153 8dbd 3286 9fbd
000001e0: 3b50 623d 5f52 51bc 0561 f43d bbff b5bd
000001f0: 3469 89bd b615 98bd 57b2 d73d fa84 d1bd
00000200: c39c 243b 4b82 fb3d ce65 e73d 467d 33bd
00000210: de7c e93d 64cf f33d 2e12 8d3d ef84 9fbd
00000220: 85c4 f3bc aa91 fc3d 11ee 8f3d 0437 c3bc
00000230: 57f5 013d 52d7 e4bd 4225 f63d 438c 8d3d
00000240: d311 c9bd 2153 b3b8 4f1c 7c3d fc5f 8dbd
00000250: fa24 b33d a3dd d63c a890 e33d 9e12 ca3d
00000260: 3a12 05bd b692 98bd 233a 113d 571f 88bd
00000270: def1 e03c a015 2c3d dd2c 90bd f2c7 ff3c
00000280: 7a44 e03d 395a a7bd 2685 e03d 789d 82bc
00000290: 3050 c1bc 4f2c 80bd 68fc 983d c95f a8b9
000002a0: 45fa b03d 191b 0dbd ef44 423d 96bd d5bd
000002b0: f11b 0e3c 8a3d cbbd da4e a9bd edc2 7ebd
000002c0: c2c4 3b3d 091f fabb f102 17bd 9812 afbc
000002d0: 400b 2c3c 4102 52bd 2dfd 95bc c7cc 9d3d
000002e0: 0a4d 97bb 72d4 b83d fab2 2b3d 5f2b 97bd
000002f0: 505e c53d fa4d 2cba 64bc e2bd e405 01be
00000300: 5ab7 9a3d 3b75 26bd e706 a5bd 0c08 4a3d
00000310: a68e c3bc 550c 903d 4d7a 4f3d 35eb e93d
00000320: 870e c33c 4cd8 cebd fe6b b3bd f9cb 03be
00000330: a50d 93bd 2ef7 b0bd d1d2 e2bd caf4 843d
00000340: 8b9b 013d e462 acbd ddd1 313d 076e 873c
00000350: 5fbe 5dbd e543 2fbd 1a40 7dbc 3793 1f3d
00000360: 380d 9cbd d3e2 1b3d 6909 d2bd 5eb2 45bc
00000370: 4e06 d3bd 15a2 4cbd 5eff 47bd 5157 4b3d
00000380: 3894 2c3d ec0b e43d ada4 4b3d 1f11 853d
00000390: 2652 513d 0cf1 653c 6ba0 b73b 560c 48bd
000003a0: 8cfd 133d b9fa 7ebd 3349 403b e0fe 8a3d
000003b0: f511 2b3d 3891 b53d f3c0 ff3d 6862 c13d
000003c0: 88b1 85bd 6070 4abc 02fa f43c 436d a43d
000003d0: 00c9 803a d3b6 bbbd b156 a23d fc8c fd3d
000003e0: 1826 abbd 984a 923d 3b17 c93c b17d a4bc
000003f0: ead9 363d 01a0 9dbd dd70 ddbc ba7d 3fbd
0.06497727 0.019279016 -0.029315399 -0.075950764 0.010489876 -0.07435767 -0.03241733 -5.6042504e-06
0.11847184 0.028222747 0.11842847 -0.01796027 -0.06263238 -0.024018582 -0.061014004 0.101003975
-0.014123992 0.08017705 -0.08250729 0.036883138 0.05897957 -0.10423074 -0.09833545 -0.096086144
0.03226093 0.010187184 -0.029186701 -0.001034206 0.10486036 -0.004648182 -0.11223648 -0.09649827
0.09222771 -0.018748036 0.09566204 -0.10760263 0.057549078 -0.05596646 0.07454189 0.035979867
-0.0004904184 -0.033568963 -0.05130727 0.12280237 0.041211445 0.035441387 -0.059138823 0.046169303
0.048305582 -0.067945905 0.0877883 -0.04600842 -0.057201624 -0.064037494 -0.118887514 -0.0067504677
0.04705824 0.099603474 0.051021706 0.06345555 -0.0020206338 -0.0845022 0.09578407 -0.11587938
-0.029277986 -0.08966551 -0.12325466 -0.099841185 -0.06567599 0.11721003 -0.10852344 -0.12248786
-0.027309284 -0.07133042 -0.072532535 0.08280567 0.0258341 -0.0014126548 -0.05027013 -0.075761676
0.059926815 -0.10024109 0.1046588 -0.0370751 -0.022076095 0.0072618546 0.020840358 0.07535529
0.10204329 -0.11298342 0.11433676 0.1165598 0.112026885 -0.0024995795 0.060497686 0.026756078
-0.06265182 0.07149239 -0.10008845 0.065576084 0.031942934 -0.028955098 0.09011286 0.11010821
0.027016286 -0.042239808 0.0950212 -0.07586689 0.031996984 -0.11900007 0.11246506 -0.04852875
0.054848153 0.006326134 -0.096870705 -0.117354035 -0.12376663 0.11198381 -0.069007285 -0.077892676
0.055252295 -0.012775986 0.119325675 -0.08886667 -0.06709519 -0.07426016 0.105320625 -0.102304414
0.0025117851 0.12280711 0.112987146 -0.043820642 0.1140077 0.11904791 0.06888233 -0.07789027
-0.029756794 0.12332471 0.070278294 -0.023829944 0.031728115 -0.111738816 0.12018825 0.069115184
-0.09817853 -8.550869e-05 0.061550435 -0.06903073 0.08747287 0.026228731 0.11111575 0.09866832
-0.032488085 -0.07449858 0.035455834 -0.066466026 0.027459081 0.04201281 -0.07039807 0.031223271
0.10950561 -0.081715055 0.10962896 -0.015944228 -0.023597807 -0.06258451 0.07470018 -0.00032114823
0.08641485 -0.03444967 0.04742902 -0.10436551 0.008673654 -0.09923847 -0.08266993 -0.062197614
0.04584194 -0.007633094 -0.03686804 -0.02137117 0.010500729 -0.05127168 -0.0183092 0.07705074
-0.004617338 0.09024896 0.041918732 -0.07381319 0.09637129 -0.0006572899 -0.11071089 -0.12599903
0.07554503 -0.040639143 -0.08057957 0.04932408 -0.023871731 0.07033602 0.050653744 0.11421815
0.023810638 -0.10099849 -0.08760832 -0.12870778 -0.07180337 -0.08640896 -0.11075366 0.06492002
0.031642478 -0.084172994 0.04341303 0.016531957 -0.05413663 -0.04278936 -0.015457178 0.038958754
-0.07619709 0.038058113 -0.10255701 -0.012066452 -0.10303937 -0.04995926 -0.04882752 0.04964382
0.04213354 0.111350864 0.049717594 0.06497406 0.051103733 0.014034521 0.00560384 -0.04883989
0.036130473 -0.062250827 0.0029340505 0.06786895 0.041765172 0.08865589 0.12487974 0.09442598
-0.06528002 -0.012355894 0.02990437 0.080286525 0.0009825528 -0.0916573 0.07926691 0.12380406
-0.08356875 0.07143134 0.02454721 -0.020079466 0.044641413 -0.07696534 -0.027031356 -0.04675076

hidden3.bias f4 [128]
00000000: d2d4 94bd a0d5 ce3d 8dbd a13d be70 adbd
00000010: ca1c 88bd ea87 f63d 79ad fbbc 83d3 ddbc
00000020: 8014 df3b c660 bc3b c699 cbbd ee2a adbd
00000030: 4b4c c2bd 34e9 9cbd b77f a8bd 38b4 e73d
00000040: b658 89bb 1483 d43d 2a29 a9bd c0bf d6bd
00000050: a0fb 39bd fb78 ee3d 3537 c83c a41e c7bb
00000060: bcef 64bd bdf9 b03c 2254 f0bd e426 00bb
00000070: 737f 36bd 7600 7abd 85c6 fcbd c887 e13c
00000080: 4fa8 973d bd25 ecbb 178a 6cbd efd9 eebd
00000090: 595a 9cbc 82ee b83d 778d d0bd 0816 d33c
000000a0: 9a6d cbbd 28cc fbbc b73c a13d 55c2 ff3d
000000b0: 6154 653d c2b7 6abd 44a6 69bd f7a3 813d
000000c0: a19b 9fbd 25b6 c0bc a497 993c be50 093d
000000d0: 0210 f03d 57b9 5e3c dc04 b8bd 098d 723d
000000e0: ed67 8fbc 6f3c 903d 06e9 cf3d 4235 69bd
000000f0: 9730 abbd 3894 b63d 4ebd edbd 64c2 7abb
00000100: 3130 eebd 1a5e 1abd 05f2 353c 772a ca3d
00000110: 1799 f4bc 276b ba3d 4487 8ebd 9871 59bd
00000120: c87d 07bc ab60 63bd e486 a23d 0940 783d
00000130: 03e3 f53d 32ff d5bd 6403 99bc 8863 a13c
00000140: cf67 903d c5b1 c13d ca6a d4bc 40fd 33bd
00000150: 8546 bbbd f2cd 933d 76ca 9f3c 0927 963d
00000160: a20f 85bd 8e8f bbbc c465 0ebb 618d 0f3c
00000170: 486a 39bd 936e 943d 0e28 893c 102e 023d
00000180: 4a42 b8bd e69c df3d a562 5cbc da26 35bd
00000190: 8820 dbbd 5889 ca3d 4b64 883b f4e5 a23d
000001a0: 89d4 d93d be1b bcbd 7fbc 7aba 3488 efbd
000001b0: 5693 b4bc 26d4 5d3d ce90 eebd 831e 823c
000001c0: a23b 543d f206 bfbd fd2c c5bd c2c5 93bc
000001d0: d0c9 98bd 9e1f d63d 1949 e8bd 493c ce3d
000001e0: 973d 3c3d fe8f 91ba 7f9d af3d 3c47 153d
000001f0: ef1b ce3d a7c3 59bd 8800 51bd b028 d73d
-0.07267155 0.100993395 0.07897482 -0.084687695 -0.06646116 0.12037642 -0.030722367 -0.027078396
0.0068078637 0.005748841 -0.09941439 -0.08455454 -0.09487208 -0.076616675 -0.08227485 0.11313671
-0.0041914834 0.10376564 -0.082598045 -0.10485792 -0.045405984 0.11644169 0.024440387 -0.0060766507
-0.05589269 0.02160346 -0.11734797 -0.001955443 -0.04455514 -0.061035596 -0.12342552 0.027530566
0.07405149 -0.007206647 -0.05774888 -0.11662661 -0.01908605 0.09029867 -0.10183232 0.025767341
-0.09933014 -0.030736998 0.078729086 0.12488238 0.055988673 -0.05730415 -0.05704333 0.06330102
-0.07793356 -0.023524353 0.018749066 0.033524267 0.11721803 0.013593993 -0.08985302 0.059216533
-0.01750561 0.07042777 0.101518676 -0.056935556 -0.08358877 0.08914989 -0.11608373 -0.0038262838
-0.116302855 -0.0376874 0.011105065 0.09871381 -0.029858155 0.09102469 -0.069593936 -0.053086847
-0.008269735 -0.05551211 0.079358846 0.060607944 0.1200619 -0.10449065 -0.018678375 0.01970078
0.0705105 0.09457735 -0.025929827 -0.04394269 -0.0914431 0.07217015 0.01950572 0.07331664
-0.06497122 -0.0228956 -0.0021728138 0.008761735 -0.045267373 0.07247653 0.016742732 0.03178221
-0.08997019 0.10918598 -0.013451253 -0.044226505 -0.10699564 0.098894775 0.0041623465 0.07954016
0.10636241 -0.09184979 -0.0009564831 -0.116959006 -0.022042911 0.0541574 -0.11648713 0.01588369
0.051814683 -0.093274966 -0.096277215 -0.018038634 -0.07460368 0.10455249 -0.11342067 0.10070092
0.045957174 -0.0011105535 0.08574962 0.036444888 0.10063922 -0.053165104 -0.051025897 0.105058074

out.weight f4 [3, 128]
00000000: 7d73 0dbd d572 0ebd af48 ff3c be87 913d
00000010: 3111 e8bc a515 233c d0bb 80bd c6c0 aabc
00000020: b1e1 a83c c565 d83d f99f 173d ecae 79bd
00000030: d925 d83c e6ef 113d f409 4abd a354 a7bd
00000040: d2f6 843d 0cd8 1abd 811b 953c 80c5 43bd
00000050: 75cb 5c3b e504 ba3a 622f 423d be7a 54bd
00000060: 7006 18bb 1da3 1fbe e0d0 a0bd d20c 8a3c
00000070: e175 acbd 24a6 02be e39a 27bd 0627 e53c
00000080: 8521 40bd 1641 bf3d b7f1 99bd e291 79bd
00000090: bb65 14bd 04c9 033d 55b0 7f3c 6ecd 473d
000000a0: 5508 563d 3448 cdbc 1998 f8bc 5196 72bc
000000b0: e6aa db3c deb2 bc3a 832c e13c 511a 9a3c
000000c0: eec9 f3bd 84c8 073d bb5b 733d 5738 96bd
000000d0: 2d85 403b 1596 903d f1e3 743c 4fca 083d
000000e0: a600 d83c fcce 3ebd eaf4 7abb 3b6d 383d
000000f0: e06d 993d 37ad 523a 1c1b 14bd c306 1ebd
00000100: 6c46 db3d 32ce 6e3d abec 0a3e 6449 afbc
00000110: f975 9ebc df1b f53d 5e99 84bd d5b5 4cbc
00000120: eb60 86bd bd7d 6dbd 0a33 c1bc dd7c dcbc
00000130: 82e6 8c3d 837f 303c e86d 733d dfa6 65bd
00000140: e5db ec3c 9a47 7b3d acc8 1f3d 7cf9 07bd
00000150: cceb 953d 2ccf 49bd 1339 f2ba aaea 99bd
00000160: 1811 82bd d8cf 873d 76b5 703c 7d4d 623b
00000170: 7b18 9d3c 6e08 90bd 4b40 bebd 52da 9f3d
00000180: ff48 c7bc 3dfe 99bd e675 5abd 651c 913d
00000190: e2c6 b73d 7a08 ae3d fe9b 80bd 080e e23c
000001a0: 5007 af3d 1a9e 57bd ba69 a33c bae8 28bd
000001b0: a519 463d 221a 4cbd 058d 703d b617 773d
000001c0: 2e6f 1fbd eb3f a43d 87f7 0dbd 4dc2 b73d
000001d0: 661c 4bbd 005a c33d 3001 a8bd 4d76 43bd
000001e0: 5857 453d 0c36 fd3d 3c78 04bd 003f 3bbd
000001f0: cba8 833d c52c 793d d30d b13a eb2b 7ebd
00000200: 5fbd 6f3d 198a cabc 3bfe 083d b099 6d3c
00000210: a51f cabb 653f 88bd 4653 8a3d 2513 8c3c
00000220: 6823 7a3d f7f8 a5bd dac3 a13d dbd3 91bd
00000230: 780e c4bd 3375 67bd 0c8d b93c 8e13 a6bd
00000240: a9ef 3c3d 7048 273d 11f9 5cbd f7fd eabd
00000250: c8d4 c5bc c00b 193d cbb0 9b3c 27a3 163d
00000260: d559 80bc 630c b53c 0f2d aebc da2c b2bd
00000270: 50f0 823b 7d3e c93c 1534 e2bb cca1 85bd
00000280: 41bb 9fbd 2359 b43c 3505 37bd 4250 ae3d
00000290: 9995 9f3d 7409 d73c 3e94 8e3d fe3e 7f3d
000002a0: b07c 773c 4cf7 50bd cfb7 d5bc c9ef c23c
000002b0: 99b2 10bd 4fbf 8f3d 4277 c13d 64db 653b
000002c0: ae14 37bc 9065 323d 4eb7 253d eb53 9c3c
000002d0: 34b1 1e3d 43e0 62bd 325d eabb dfba 8fbd
000002e0: aee7 8d3d 7291 90bd ccaf 81bc dd29 123d
000002f0: bfd4 51bd dd97 88bd aedb ca3c b226 0c3c
00000300: 5412 4b3d c70a 84bd dae6 78bc 36bb a9bd
00000310: 16db ee3c 7cfe 8cbd 1686 90bd b057 99bc
00000320: 48e4 3cbd 4d8c c83d 71d3 13bd 5282 733d
00000330: 784c 04be b6fc 94bd 266b 14bd a18f 7ebb
00000340: 1b63 e03c 4c65 3b3d 5f6c 083d 10c1 9d3b
00000350: cd9f 2ebd e0be 5b3c accc 74bd f3dd a3bd
00000360: 3c1c 3cbd d754 8cbd 9c41 49bd 3753 85bd
00000370: 10f7 253d 70b8 253d c41a 52bd c1bb afbd
00000380: 997a d13d 4fe7 89bc e5c9 9abd 57bb c0bd
00000390: 986c a3bd a0c2 24bd a9a1 9fbb 14dc 8bbd
000003a0: 6a62 fcbc 0236 04bd 82c5 8cbc a610 b0bd
000003b0: 0948 afbc 8f9d 313d 3049 67bd b3fc 2d3d
000003c0: 4952 313d d0e5 54bd 48dd 8e3d 3a20 ab3c
000003d0: 7dce 813c 9eda 84bd 6cb8 09bb d424 c33c
000003e0: f123 933d 41b9 303c 1af1 32bb 5325 2f3d
000003f0: 6d47 c6bb 648a 57bb 2828 5f3d 1954 31bd
-0.034533966 -0.03477748 0.031162588 0.07105969 -0.02832851 0.009953891 -0.062858224 -0.020843875
0.02061543 0.10566286 0.037017796 -0.060957834 0.026385235 0.035629176 -0.0493259 -0.0817044
0.0649239 -0.037803695 0.018201591 -0.047795773 0.0033690606 0.0014192133 0.04740847 -0.05187487
-0.0023197196 -0.15589567 -0.0785234 0.016851816 -0.08420921 -0.1275869 -0.040919196 0.02797271
-0.046906967 0.09338586 -0.075168066 -0.06093014 -0.03622983 0.032174125 0.015606006 0.048779897
0.05225404 -0.025058843 -0.030345963 -0.014806346 0.02681489 0.0014396568 0.027487045 0.018811377
-0.119037494 0.03315021 0.059413653 -0.07334965 0.0029376254 0.07059876 0.014946924 0.03339606
0.026367497 -0.046584114 -0.0038292953 0.045026045 0.0749166 0.0008036675 -0.036158666 -0.038580667
0.10706791 0.058302112 0.13566844 -0.0213973 -0.019343363 0.119682066 -0.06474565 -0.012494524
-0.065614544 -0.05798124 -0.023583908 -0.026915008 0.068799034 0.010772589 0.059430987 -0.056067344
0.028913448 0.06134758 0.039009735 -0.03319691 0.07320365 -0.04926984 -0.0018480144 -0.07515462
-0.063509166 0.0663144 0.014691701 0.003453105 0.019176712 -0.07032858 -0.09289607 0.07805313
-0.0243268 -0.07519195 -0.053335093 0.07085494 0.08973481 0.084977105 -0.06279753 0.027594581
0.085463166 -0.05264101 0.019947875 -0.04123757 0.0483643 -0.04982961 0.058728237 0.060325347
-0.03892439 0.08020004 -0.03465989 0.08972607 -0.04958763 0.095386505 -0.082033515 -0.047720242
0.048179 0.12363824 -0.032341227 -0.04571438 0.06428679 0.06083371 0.0013508148 -0.062053602
0.058530208 -0.024724053 0.033445578 0.014501974 -0.006168323 -0.066527165 0.067541644 0.017098973
0.061068922 -0.08104127 0.07898684 -0.07120486 -0.09573072 -0.056508254 0.022650264 -0.081091985
0.046126995 0.040840566 -0.053948466 -0.11474221 -0.024149314 0.03736472 0.0190052 0.036776688
-0.015667835 0.022100633 -0.02126172 -0.08699961 0.0039959326 0.02456593 -0.0069031813 -0.06525001
-0.07799388 0.02201516 -0.0446827 0.08511402 0.07792205 0.026249625 0.06961869 0.062315933
0.015105411 -0.05101709 -0.026088623 0.02379598 -0.035326574 0.07018911 0.09446575 0.0035073394
-0.011174364 0.04355389 0.040458016 0.019082984 0.038743213 -0.055389654 -0.007152223 -0.07018065
0.06928955 -0.070589915 -0.015830897 0.035684455 -0.05122828 -0.066695906 0.024762955 0.008554148
0.049578026 -0.06447368 -0.015191758 -0.08287661 0.029157203 -0.068844765 -0.07056825 -0.01871857
-0.046116143 0.09792385 -0.036090318 0.059450455 -0.12919796 -0.07274763 -0.036234997 -0.0038842934
0.027391007 0.0457509 0.033306476 0.0048142746 -0.042632867 0.013412207 -0.059765503 -0.08001318
-0.045925364 -0.068521194 -0.049134836 -0.065100126 0.04051882 0.040459096 -0.051295057 -0.08580733
0.10228462 -0.01683393 -0.075580396 -0.09410732 -0.07979697 -0.04022467 -0.0048715663 -0.06829086
-0.030808646 -0.03227807 -0.017184023 -0.085969254 -0.021396654 0.04336315 -0.05646628 0.04247732
0.043291364 -0.05197698 0.069758 0.02088939 0.015845532 -0.064870104 -0.0021014465 0.023821272
0.0718459 0.0107863555 -0.0027304352 0.042760205 -0.006050995 -0.0032888884 0.054481655 -0.043293092

out.bias f4 [3]
00000000: c68b 91bd 4d16 6d3d edeb c73c
-0.07106738 0.057882596 0.02440449
