object_tracking/model.pth (torch, 52399 bytes, 8 tensors)

weight f4 [32, 42]
00000000: f54f 383e 31bb 99bc 1177 cbbd 1b91 a6bd
00000010: c35a d6bd 9f7a 5d3e 1b7d 7ebd 2624 3d3e
00000020: fe3a a6be aac4 9d3e 245b ea3d 6c7c 2ebd
00000030: 2e7b 8bbd abce 0fbe 22b3 f53c 0869 26be
00000040: b62d 92bd 57c4 0abf ee80 a4bd 0fc3 55bd
00000050: 6b97 b03d ea71 7a3d 23eb e03d 3b10 dd3d
00000060: 06b1 d73d ebb0 9f3e 9047 133d 45bd 50bd
00000070: b2b2 173e 4348 293d 666e 1d3e 33a4 abbd
00000080: 6d0b 853c c4c3 783e 0652 b13d 5db7 fcbd
00000090: 43c9 813d 44e9 b0bd 59a6 8cbd 09f1 4d3d
000000a0: 2a29 39be 1822 363e ca83 9b3d e2d1 0abe
000000b0: 08fd 75bc ad23 40bd cc99 b3bc 6437 c83d
000000c0: 878e 273c 9243 1fbe 86f8 d6bc e6bc 8abd
000000d0: cb3f 5bbb aaca b3bd 8df9 eabd ba9d 203b
000000e0: 5b2f 0d3e 9aac 283d 010e 0d3e 6f9e 1fbd
000000f0: bde5 273d 5279 dd3d a887 0ebe 1a20 be3d
00000100: f93e 05be 1f1a 1dbe cc9a c8bd 41ae d63d
00000110: e36e 9abd 9f9f ae3d 7e06 79bc 1793 0d3c
00000120: 3afe f73d 959d b8bb 52d1 e9bd 4c6a 8bbd
00000130: b14b af3b 0f01 733d cb19 f93d 73df d5bb
00000140: d540 fdba 07f0 a9bd 9e3e 703c 9e13 ad3c
00000150: 38bb 943d cc7c dbbd 6c98 2a3d 3195 733d
00000160: d106 a93d 3d99 1ebe c88c 00bd 3037 00be
00000170: e263 71bd cef8 50bd fc12 b0bd eb6c 8fbd
00000180: 73f0 273d 86fb 893d 911d ed3d 3b22 87bb
00000190: 2c0f cc3d f9ff 6d3d 2409 713c 4f2e 5ebc
000001a0: d660 01be 6672 903d 6638 1c3e f6e1 0bbe
000001b0: 3155 35bd 1eb5 92bc 8a9c adbd 763a 22be
000001c0: 4810 b4bd 9fc0 00be e6ad 123e bec3 63bd
000001d0: 869d 313d 0014 403d 1f5e 353d 26a2 99bb
000001e0: 2752 623d 1ad8 40bd 0af0 01be 6dcb 8fbd
000001f0: efb4 22be 731b 003e 58e1 21bd 97f7 fbbc
00000200: 9d2c 97bd 57ff 90bc 34e0 c33c 7f90 c13d
00000210: fbc6 8b3d 219c aabd 5d03 c2bd 08f1 ec3d
00000220: 9f6b 24be af80 383d 73e2 333d 43e7 3c3d
00000230: 248f 8abc 6261 473d c711 e93d 6ea8 8cbd
00000240: e21a 1dbe a089 cabc ab52 dfbd 45ae e93c
00000250: c322 6fbd 77c9 8a3c 08db 8ebd 4183 5c3d
00000260: 3e69 783d ea58 003e e8b5 df3d cfae 17be
00000270: 1382 f0bb 0404 c73d f31e 9dbd dd38 05be
00000280: d904 0f3e c42c a2bd d7d7 abbd f400 8cbd
00000290: fbbe e23d dd0e 83bd f495 163c 2d25 edbd
000002a0: dcf0 1b3d 20d3 0fbe 0883 123d 3e8d 99bd
000002b0: 6667 cb3d 0aaa 91bd 6436 07be da4a 873d
000002c0: 145c 99bd 00dc 05bb 48d2 c9bd 0069 413d
000002d0: 0457 31bd 91df 0f3e a857 9a3c 2771 85bd
000002e0: dab8 f5bd f28c 69bd 9028 1ebc 2c8d f4bd
000002f0: bc16 973d ee05 bdbd 68a8 abbc c7ed acbd
00000300: cd43 dabd 2485 933d ca4f 05be 78f8 1b3d
00000310: fac9 aebd 484c 4bbd 458d 173e 81ac 1c3e
00000320: 3833 253d b193 073e 78d9 88bc ce56 3ebd
00000330: b805 383d 4a71 eb3d cadd f1bd b82b ad3d
00000340: 5d50 8fbd 5645 26bd 40dd fabd 334b fcbd
00000350: eab5 11be c85f 8a3c 9626 c83d bc45 113d
00000360: a004 913c 6f62 a1bd c6ab fe3d 22c3 d03d
00000370: ad38 e8bd 40d1 58bc fe77 893d 80f2 91bb
00000380: b6d5 903d b0d1 9a3d 40bd aabd 9204 f53d
00000390: 9e33 1cbd e6f8 1cbd 0b51 12be 14ec f1bc
000003a0: e07a cabd a468 733d b0c8 db3c 1f9b 98bd
000003b0: d044 52bc 4c5b 98bd f6c6 eb3d 99ed 113e
000003c0: a250 53bd 709e 523c 6bfb 1cbe 21f2 1cbe
000003d0: 198d 92bd e04f f83b 4ac7 dc3d 4fb9 d5bd
000003e0: 4084 c1bd b92d f7bd 4444 11be c66b e23d
000003f0: a57b 643d 1378 353c 260d 073e 8356 c0bd
0.17999251 -0.018766018 -0.099348195 -0.081331454 -0.1046653 0.21628807 -0.06213103 0.18470821
-0.32466882 0.30814105 0.11443165 -0.042599127 -0.06810604 -0.14043681 0.029992644 -0.16251004
-0.07137625 -0.5420584 -0.08032404 -0.052187975 0.08622631 0.061143793 0.10982349 0.10794111
0.105318114 0.31189665 0.03595692 -0.05096175 0.1481426 0.04132868 0.15374145 -0.08380928
0.0162408 0.24293429 0.08658223 -0.12339661 0.06337216 -0.08638242 -0.06867666 0.050278697
-0.18082109 0.17786443 0.07593496 -0.13556626 -0.015013941 -0.046909023 -0.021923922 0.0977619
0.010226852 -0.1555312 -0.026241552 -0.06774311 -0.0033454772 -0.087788895 -0.11473379 0.0024508075
0.13787596 0.04118023 0.13774873 -0.038969453 0.04099058 0.10814156 -0.13918936 0.09283467
-0.13012303 -0.15341996 -0.0979515 0.10482455 -0.07540681 0.08526539 -0.015199302 0.008641026
0.12109037 -0.0056340196 -0.11416878 -0.06807384 0.0053495993 0.05932718 0.12163123 -0.0065268814
-0.001932169 -0.08297735 0.014663367 0.021127518 0.07262272 -0.107171625 0.041649267 0.059468452
0.08253253 -0.15488143 -0.03138426 -0.12521052 -0.058933146 -0.05101853 -0.08597371 -0.07003196
0.041000795 0.067374274 0.11577905 -0.0041239536 0.09963831 0.058105443 0.014711652 -0.0135608455
-0.12634596 0.0705307 0.1525589 -0.13660416 -0.044270698 -0.017908629 -0.08477123 -0.15842614
-0.08792168 -0.12573479 0.1432415 -0.055606596 0.043363117 0.046894073 0.044279214 -0.004688519
0.055254128 -0.04708109 -0.12689224 -0.07021222 -0.15889333 0.12510471 -0.039521545 -0.030757708
-0.07381556 -0.01769988 0.02391062 0.094513886 0.06825062 -0.083305605 -0.09473298 0.115694106
-0.16056679 0.045044597 0.04391713 0.046118986 -0.016913958 0.048676856 0.11380344 -0.06868063
-0.15342286 -0.024723828 -0.109044395 0.028525481 -0.05838276 0.016941769 -0.06975371 0.05383611
0.06064724 0.12533918 0.10923368 -0.14812778 -0.007339725 0.09717563 -0.07671919 -0.13009973
0.13966693 -0.079186946 -0.083907776 -0.06836119 0.11071583 -0.06399319 0.009191025 -0.11579356
0.0380715 -0.14045382 0.035769492 -0.07497643 0.09931831 -0.071125105 -0.13204342 0.06606074
-0.07488266 -0.002042532 -0.09854561 0.047219276 -0.043295875 0.14050128 0.018840626 -0.06515723
-0.11998148 -0.05701918 -0.009653226 -0.11940989 0.07377383 -0.092296466 -0.020954326 -0.0844379
-0.10657463 0.07203129 -0.13018718 0.038078755 -0.08534618 -0.049633294 0.14799984 0.1530018
0.04033205 0.13239934 -0.01670526 -0.046469502 0.04492733 0.114962175 -0.11809881 0.08455604
-0.0699775 -0.040593468 -0.12249231 -0.123190306 -0.14229551 0.016891375 0.09772985 0.035466895
0.0177024 -0.07880103 0.12435107 0.10193469 -0.11338935 -0.013233483 0.0671234 -0.004453957
0.07072012 0.07559526 -0.08336878 0.11963762 -0.038135163 -0.038323306 -0.14288728 -0.029531516
-0.09886718 0.059425965 0.026829094 -0.07451462 -0.012833789 -0.074392885 0.11512558 0.14250793
-0.05159057 0.012855157 -0.15330283 -0.1532674 -0.071558185 0.007577881 0.10780199 -0.104357354
-0.09449053 -0.12069268 -0.14186198 0.110557124 0.05578198 0.011075991 0.1318861 -0.09391501

bias f4 [32]
00000000: 2ad0 0f3e 8cc7 413d 7b7b 133e cae5 1cbe
00000010: 80a0 9c3c 2970 babd 9192 c63d ac5a 0e3d
00000020: 161f f13d d0cc 06be 4a85 25bd a702 a8bb
00000030: c542 c1bc b6d1 bcbd a71b 9b3d 379c 113e
00000040: fbe8 16be b2be 0cbe bfb2 05be 6067 c63c
00000050: a089 893c 04ba b5bd c351 bebd a175 4a3d
00000060: 2aab d63d 6f9d e83d 60ce dbbb 1e53 47bd
00000070: c05d 813c da6d 983d a2e4 d7bd b42f 1cbe
0.14044252 0.047309443 0.14402573 -0.15322033 0.019119501 -0.09103424 0.09695924 0.03475444
0.11773507 -0.13164067 -0.040410317 -0.0051272693 -0.023591409 -0.09219687 0.07573634 0.14219747
-0.14737312 -0.1374462 -0.13056467 0.024219215 0.016789258 -0.0887337 -0.092929386 0.049428586
0.10481866 0.11358153 -0.0067079514 -0.04866325 0.015791774 0.074428275 -0.10541655 -0.15252572

weight f4 [64, 32]
00000000: 7a30 bd3d 408a 293e abcb a73d d9ed 50bd
00000010: 5bc3 203e 8ae1 a7bd e509 4abd ee16 2d3e
00000020: 8ac7 b93d 159d 2a3e fdc2 ef3d e8e3 b63d
00000030: bbf2 f6bd 4cdd 893c 7989 27be 278e afbd
00000040: a055 aabc 02ce f7bd 401c 1cbe 80e5 bc3c
00000050: cae0 ca3d d1d7 0e3c 49b0 eb3c 8f3a ccbd
00000060: bbfb f13c 8c0d 17be 94d2 313d 2bdd e13d
00000070: f9d7 333e 0024 5a3c 54d3 1f3d 805d 26be
00000080: 1a84 e73d 04cf 063e 122b 133d 248b 80bc
00000090: 02d9 ab3d f4a1 b6bd e2e8 21be 6eda 863d
000000a0: ef2c 223e 796e 2ebe 2f7a 60bc 73d5 e13c
000000b0: e843 0f3e 7969 f03d 78ca 953d 47bb 1b3e
000000c0: ca16 e73d 22b1 ea3d b277 273d 24aa 483d
000000d0: 48fc 2cbe c042 5abd b92b 773d 2866 0fbe
000000e0: ee1a a7bd 2323 02bd 668c 20be 3e1f 993d
000000f0: 9208 79bd dfa8 f3bd 0a06 0d3e 0437 bcbd
00000100: 1bc8 2e3e 0731 6abd 29f0 f03d 8d7f 63bd
00000110: 4299 cc3d 2513 e8bd 1108 17be 0ad2 a9bd
00000120: 40bd 6b3c 092f a0bd 0b86 1e3e 6e50 19be
00000130: d6d7 94bd c78b 09be 149e a4bd 3759 12be
00000140: 4718 233e 6b89 c6bd 230a b4bd 16ce bd3d
00000150: 4e05 cebd b443 a53c 3d77 233e 27f8 a03c
00000160: 6a93 b6bc 58a4 2c3d a26f 6cbd c283 9d3d
00000170: 8846 cd3c df4b 0f3e a20b 233e 29df bc3d
00000180: dec2 30bc 32eb 51ba d346 06be f7e3 123e
00000190: 5718 043e e32e 15be bb5a 463e 0e12 10be
000001a0: 709a 3d3c 0192 fa3d 2b83 c23d 25b2 c13d
000001b0: 1f18 fe3d 466b f2bd faf7 e4bd 7611 e9bd
000001c0: d67b e63d ba7b 973d af39 143e 7cfd 7fbd
000001d0: 827d 03be 983b 0b3e 6bb5 8a3d 4d50 bc3d
000001e0: 0ef9 55bd 9c0d e5bd a08d 01bc ade8 2e3e
000001f0: 1757 273e 2ac4 8f3d e694 f53c 6aa7 d03d
00000200: 591d f0bd 2de6 c7bc a0fb 5e3c 9019 ec3d
00000210: f4e9 2a3d 1055 a6bd 2e33 f43d bf9f b63d
00000220: b0b5 c3bc a8ed fb3c c58c 2cbd 4b71 083e
00000230: 7bca ca3c 48ea fb3d 37f7 883d 16cf abbc
00000240: 8036 dbbb 7bca 233e 90a4 99bd 44f9 543d
00000250: e0e6 453c 606f 8d3c adc5 12bd e662 e2b9
00000260: 15d3 f43d 53cd 0e3e 70b1 29be 6a06 e5bc
00000270: a852 1ebe 860b ce3d 4a7f 663d 8c35 e83c
00000280: df93 83bd e7af 83bd d801 e93d 271c 1cbe
00000290: a081 443c e86e 8f3d 147d 593c e7a3 1d3d
000002a0: dfce 0e3e bc5e 25be be04 aebd de82 07bd
000002b0: 74ff 373d 7d3c da3d e8f3 61bd 25bf 263e
000002c0: 79ef 233e 79ca 483d aa46 273e 55d6 0b3e
000002d0: c0c6 37bb 6ede 973d e112 a1bd 9e6b 99bd
000002e0: 853c 193d 3c74 33be 004d f23b 4c1d 9c3d
000002f0: 00f5 083c a811 13be 8af6 14be 3408 e83d
00000300: bdee 25be ba3c b03d dfbd 6ebd 9496 1ebe
00000310: b712 273e 4823 15bd 6358 08be 7228 10be
00000320: 1ab9 febd c3e2 1c3e a433 363d 7233 0dbe
00000330: f9c0 0f3d 3b4e dabc 2418 cdbd 569b eb3d
00000340: 1ba7 2fbe bade 0dbe 3b19 283e 9aef b03d
00000350: c074 833c 3f98 dbbd 4969 03be 991a dcbd
00000360: 3a34 c83d 3d47 80bd cb55 203e a5e5 b2bd
00000370: ff29 1d3e 05cb 28be f454 5cbd 117c 1a3e
00000380: fdb6 c6bd 72c0 7cbd a59c 56bd 3dac e63a
00000390: 2dae 1d3e a078 cd3c 9549 14bd 1ae9 963c
000003a0: 8010 31be 0ad0 0cbe 363d 44bb 0d2c 77bd
000003b0: 0dc0 babd d201 11be 9eda 2ebc 93f6 72bd
000003c0: 00df 34ba c328 183e 55f5 a6bd a58e c0bd
000003d0: 98e3 09bd c681 df3d 5048 0fbd c53e 3abd
000003e0: 07e5 ca3d f933 ce3d 00f1 cd3a 08ee d03d
000003f0: 3adb 883d c540 9fbd 6b6f 0d3e 4841 583e
0.09237762 0.16556644 0.081931435 -0.05100808 0.15699522 -0.08197315 -0.049325842 0.16903278
0.09071262 0.16661485 0.11707113 0.089301884 -0.12058016 0.016829155 -0.16361035 -0.08572035
-0.020792782 -0.1209984 -0.15245152 0.023058653 0.09906156 0.008718447 0.028770583 -0.09972107
0.02953898 -0.14751261 0.043413714 0.110285126 0.17562856 0.013314247 0.039019898 -0.16246605
0.11304493 0.13164908 0.035929747 -0.015691347 0.08391 -0.08917609 -0.15811494 0.06584631
0.15837453 -0.1703433 -0.013701006 0.0275676 0.13990748 0.11738867 0.073140085 0.1520816
0.112836435 0.11459567 0.040885635 0.048990384 -0.16893113 -0.053286314 0.06034443 -0.14003813
-0.08159433 -0.03177179 -0.15678558 0.07476662 -0.06079919 -0.11897444 0.13771835 -0.09190181
0.17068522 -0.057175662 0.11764557 -0.055541564 0.09990169 -0.113317765 -0.14749171 -0.08292015
0.014388382 -0.07821471 0.15480821 -0.14972088 -0.0726773 -0.13432227 -0.080379635 -0.14291845
0.1592723 -0.09694179 -0.08790996 0.092678234 -0.100596055 0.020173885 0.15963455 0.019649578
-0.02228709 0.042148918 -0.05772365 0.076911464 0.025058046 0.13993786 0.15922406 0.09222252
-0.010788647 -0.0008007764 -0.13112955 0.14344774 0.1289991 -0.14568667 0.19370548 -0.14069387
0.011572465 0.12234879 0.094976746 0.094578065 0.124069445 -0.11836867 -0.1118011 -0.113802835
0.112540886 0.07396646 0.1447513 -0.0624976 -0.12840846 0.13596952 0.06772884 0.09195004
-0.05223947 -0.111842364 -0.007907301 0.17080946 0.16341816 0.07019837 0.029978227 0.10188182
-0.117243476 -0.024401749 0.013609797 0.11528313 0.04172702 -0.08121693 0.11923824 0.08917188
-0.023890346 0.030752972 -0.042126436 0.13324468 0.024754753 0.12300545 0.066877775 -0.02097277
-0.0066898465 0.15995209 -0.07502091 0.05199553 0.012078971 0.017265022 -0.03583305 -0.00043179764
0.11954323 0.13945512 -0.16571593 -0.02795716 -0.15461218 0.10060792 0.056273736 0.028345846
-0.064246885 -0.06430035 0.11377305 -0.15245114 0.011993796 0.070035756 0.01327445 0.038486388
0.13946103 -0.1614942 -0.08496998 -0.03308379 0.044921353 0.106560685 -0.055164248 0.16283853
0.1600932 0.049021218 0.1633555 0.1365598 -0.0028042048 0.07415472 -0.07864929 -0.074912295
0.03741123 -0.17524809 0.007394433 0.076227754 0.008359194 -0.14362204 -0.14547172 0.113296896
-0.16204353 0.08605333 -0.058286544 -0.15487128 0.16315733 -0.0364106 -0.13314967 -0.14077929
-0.12437649 0.15320878 0.044482842 -0.13789156 0.035096142 -0.026648631 -0.1001437 0.11504237
-0.1715359 -0.13854495 0.16415875 0.0863945 0.016046882 -0.10722398 -0.12833132 -0.107472606
0.097755864 -0.062635876 0.15657727 -0.087352075 0.15348051 -0.16483696 -0.053791955 0.1508639
-0.09702871 -0.061706968 -0.05239548 0.0017598938 0.15398474 0.025081933 -0.036202986 0.018421698
-0.1729145 -0.13751236 -0.002994371 -0.060344744 -0.09118662 -0.1416085 -0.01067224 -0.059317183
-0.00068996847 0.148593 -0.08152262 -0.09402207 -0.033664316 0.10913424 -0.034981072 -0.045470018
0.09906965 0.10068507 0.0015712082 0.10201651 0.06682439 -0.07776026 0.13812034 0.21118653

bias f4 [64]
00000000: 45ff b3bd 8837 e1bd 4777 f93d b1c9 2d3b
00000010: e4cf 403d f5a1 ddbc a729 11bd b906 bebd
00000020: 4ee6 143d 37f1 9cbd d828 2b3e e501 02be
00000030: bacd 76bd c944 b63b 6659 e53c dabf e0bd
00000040: 3454 16be 7547 07bc 4836 bcbc d110 903d
00000050: 483f 443d f33c c5bd 2f2a 27be 10d8 efbd
00000060: e65a f6bd 7b01 553c be29 503d cd9c 993d
00000070: a0f9 c53d a9f7 e6bd 91dc 933d add1 7abd
00000080: 41e7 623d 74f4 5f3c 68e1 1fbe 3e42 11be
00000090: 9d60 56bd 17c5 96bc 36d7 9bbd dbab 26be
000000a0: 2d70 c1bd cf8a 2b3b 40d4 8e3d 3a09 29bd
000000b0: b41b 263e 5a81 1e3e 65c5 443d bc01 333e
000000c0: a7ba 0fbe 9dc9 0c3e b4f6 2dbe 5523 c8bc
000000d0: 9844 d3b9 ba67 21bd bfbc b23d f31a b7bd
000000e0: 14c3 15bc 891b 6f3d 2f4d 2e3d 30f3 2f3e
000000f0: 62f9 1d3e bac3 df3d 3879 53bd ed02 d43d
-0.08788923 -0.1099692 0.121809535 0.0026517923 0.04707326 -0.027054766 -0.035440113 -0.09278626
0.03635245 -0.076631956 0.167148 -0.12696035 -0.06025479 0.005562399 0.02799673 -0.10974093
-0.14680558 -0.008256783 -0.022975102 0.070344575 0.047911912 -0.09630766 -0.16324686 -0.117111325
-0.12029056 0.013000841 0.05082106 0.075006105 0.09666753 -0.11277706 0.07219804 -0.06123512
0.055396322 0.013669122 -0.1561333 -0.14185426 -0.05233823 -0.018404527 -0.076094076 -0.16276495
-0.09445224 0.0026175266 0.06974077 -0.041268565 0.16221505 0.15479031 0.048039813 0.1748113
-0.14036046 0.13748784 -0.16988641 -0.02443091 -0.00040296162 -0.039405562 0.08727407 -0.08940687
-0.0091407485 0.05837587 0.042554077 0.17182612 0.15427163 0.10926004 -0.051629275 0.103521205

weight f4 [128, 64]
00000000: dd54 603d 2a19 b6bd 591a 193d 617a 25bd
00000010: 9fc7 3abc adf5 ed3c 7f1f 9ebd 41b3 b7bd
00000020: 992c eabd 2ade 83bd b47f c2bc 9d61 8d3b
00000030: 7241 33bd 24af 95bd 8564 ea3c 89e1 143d
00000040: ecc9 4e3d 4897 e23d 363e 8abd 1d52 cbbd
00000050: 33f8 82bc 63e0 83bd b855 3abd 5783 82bd
00000060: 4806 bdbd eb31 cbbd 8ca3 99bd 0c19 20bd
00000070: 84c7 413d fce9 5e3c 5d79 c83d 2a01 5fbd
00000080: 9c88 eebd 8cf2 64bd 7649 703d 11a3 c23d
00000090: 86cb 52bd f308 a23d 7d9f f8bd 2980 cd3c
000000a0: be00 f5bc 2905 c13c 3931 523d eddb 3b3d
000000b0: 5a2c 98bd 38df 933d e030 3dbc 1ac3 b4bd
000000c0: e321 81bd 3a1c 213d dd99 4dbd 89f2 cc3d
000000d0: ec07 85bc 0b5a 40bd d118 b4bd 7072 cc3d
000000e0: bd6d f53d 19f8 833d c8af 84bd 0b62 c03d
000000f0: 071d a73d 1804 94bd 5e04 f1bd 8cb0 b9bc
00000100: 1e3c 9e3d 329e ae3d 7280 893c 1b3c e0bd
00000110: 2413 013c 0b85 e53d db2e 243d d97e 83bd
00000120: edcc f9bc 57a5 d33d 7b3f ae3d a8ac a63d
00000130: 954d e43d a287 33bd 1b78 7ebb 5e35 89bd
00000140: 6a97 fd3d abc3 80bc c424 f2bd 3202 ba3d
00000150: 6aa4 3dbd 886f d1bd 1413 1e3d 90e5 d43d
00000160: c19c 8c3c 1b0c b83d 6fa3 d63d a145 80bd
00000170: 41e4 85bc 685a b13c 67b0 bebd 8cd0 84bd
00000180: 121a 01be 8a2e ca3d c196 1c3d c22c c4bd
00000190: a502 f4bd 3d20 473c 8089 323d 349a bebd
000001a0: 79fb babd ee20 e53d 118c 233d 188a 34bb
000001b0: 45e4 053d 6d91 b4bd 50b1 30bd f987 a6bd
000001c0: d8cc ad3c f30f fb3d 4aa2 adbc 5724 f2bc
000001d0: a35d e63c 0139 3d3d a9bb 283b e55d ab3d
000001e0: 77b5 91bd d2ce eabd ab72 f8bd 53d2 a8bd
000001f0: 9420 5abd 1ec8 0cbc d668 723c 99f7 ff3c
00000200: 145d e23d 2467 b2bc ae0b bd3d c335 36bd
00000210: 4781 06be a1ea cbbb c67b ddbd 4072 7e3c
00000220: 4389 333c bdae e4bd 19b2 8f3d d9f5 18bc
00000230: c1f0 f1bd f640 a03d 1ff2 af3d 45ea 13bc
00000240: 0186 663d f870 c13c 2d6f 2e3d 6c6b 8e3d
00000250: 5117 043c 66cb d03d 8038 cdbc 9b93 cd3d
00000260: cddb b43d 5b98 a83d 148c 51bd 5d0e 51bd
00000270: 2a69 91bd 6073 00bd 8598 b0bc 0096 10bc
00000280: 3def a8bd 5034 a5bd aaaf 8d3d 3910 973d
00000290: 65cd 363d 9a24 683c 2fc4 f9bd 8f99 343d
000002a0: 505f cfbd 3fcb bebd 55db 613d 71f1 673b
000002b0: 3979 a43d 3a54 5f3d 4868 2bbd 349f 69bd
000002c0: 820e b6bd 9f78 8e3d 5aad cbbd 8967 9c3c
000002d0: 11a9 a33c 9931 e03d db7e 9ebd 53a7 143d
000002e0: 4602 bebd b026 953d 3209 ad3d b894 c53d
000002f0: 6590 54bd e11d a03d 71f5 01bd 2fe9 c3bc
00000300: f8e8 f9bb b052 e53b ff82 d33c 78bd c0bc
00000310: ef9b 51bd ad58 ed3c 0057 c6bd 2bdc 00be
00000320: 246e c13b f316 c93c bd94 6e3b 8556 2d3d
00000330: 1d58 e4bd ce72 dc3d 5163 993d 193c 72bb
00000340: 6c98 fdbd c2b0 4b3d b9f7 0a3d 4866 753d
00000350: eef3 7cbd 4e9d febb b88c b1bd 3a86 46bd
00000360: 31ba fe3d 92cd 4ebd 5986 f63d 8adc 343d
00000370: b995 023b 513e efbd e205 5d3d 4bdf 64bc
00000380: 321f 74bb 23db eabc 6733 be3d d4b4 9ebc
00000390: 4d08 bdbd 9375 59bd 6bd2 13bc 7e26 2e3d
000003a0: 5dde bfbd 91aa b03c 6b9e 933d 81a1 ae3d
000003b0: c90a fb3d c815 db3d 9dfb 9fbc ebd1 953b
000003c0: d057 c93c 4b4e 69bc 4a66 b33d 2521 dc3c
000003d0: 0b11 91bd 8ef0 983d ea5d 97bd 16ff d03d
000003e0: d156 8f3c 188d d0bd a824 563c 868a 2abd
000003f0: 71e8 bfbd 495f a3bd afb2 8c3d 4e45 8c3d
0.054768432 -0.088915184 0.037378643 -0.040399913 -0.011400132 0.029047811 -0.07720851 -0.08969737
-0.114342876 -0.06438859 -0.023742534 0.004314615 -0.043763585 -0.07308796 0.028612385 0.0363479
0.050485536 0.11064011 -0.06750147 -0.09927771 -0.015987491 -0.06439283 -0.045491904 -0.06372707
-0.09229714 -0.099216305 -0.07501897 -0.039086387 0.047309414 0.013605591 0.09788773 -0.05444447
-0.1164715 -0.055895373 0.058663808 0.09503759 -0.051463626 0.07911863 -0.12139795 0.025085526
-0.02990758 0.02356203 0.051316474 0.045864034 -0.074303344 0.0722031 -0.011547297 -0.08826275
-0.063052915 0.03933356 -0.050195564 0.100071974 -0.016239129 -0.04696087 -0.08793796 0.09982765
0.119838215 0.06443805 -0.0647884 0.093937 0.081598334 -0.07227343 -0.11768411 -0.022667192
0.0772631 0.08526267 0.01678488 -0.10948964 0.007878099 0.112070166 0.040083747 -0.06420679
-0.030493224 0.103342704 0.08508202 0.081384 0.1114761 -0.04383052 -0.0038828913 -0.06699632
0.123823956 -0.015718302 -0.11823419 0.0908245 -0.046299376 -0.10226351 0.038592413 0.10395348
0.01716459 0.08986684 0.10480391 -0.06263281 -0.016344192 0.021649554 -0.0931099 -0.0648509
-0.12607601 0.09872158 0.038229708 -0.095788494 -0.11914567 0.012153682 0.04358816 -0.09306756
-0.09129996 0.111879215 0.0399285 -0.002754813 0.032688398 -0.088168 -0.04313785 -0.081314035
0.021215841 0.122589014 -0.02119555 -0.029558344 0.028120821 0.04619694 0.002574662 0.08367518
-0.0711469 -0.11465229 -0.12131246 -0.08243241 -0.053253725 -0.0085926335 0.014795503 0.031245993
0.110529095 -0.021777697 0.09230743 -0.044484865 -0.13135253 -0.0062230383 -0.108146235 0.015530169
0.010958019 -0.11166141 0.07016391 -0.009335958 -0.11813498 0.0782489 0.08591103 -0.009028022
0.05628014 0.023613438 0.042586494 0.06954083 0.0080622 0.10195045 -0.025051355 0.10037919
0.08830986 0.082321845 -0.05115898 -0.05103909 -0.071001366 -0.03136003 -0.021557102 -0.008824825
-0.08248756 -0.080666184 0.06918271 0.07376141 0.044629473 0.014168883 -0.12195622 0.044091757
-0.10125601 -0.0931611 0.055140812 0.0035391713 0.08030934 0.054523684 -0.041847497 -0.057036594
-0.08889486 0.069566004 -0.099451736 0.019092338 0.019978078 0.1094696 -0.077390395 0.036292385
-0.092777774 0.0728277 0.084490195 0.096475065 -0.051895518 0.07818199 -0.03172821 -0.023914902
-0.007626649 0.0069983825 0.0258193 -0.023527846 -0.0511741 0.028972948 -0.09684563 -0.12583987
0.0059030224 0.024547076 0.0036404573 0.04231884 -0.11149619 0.10764085 0.07489646 -0.003696209
-0.12382588 0.049729116 0.033927653 0.059911996 -0.061756067 -0.007770217 -0.08669418 -0.048467852
0.12437857 -0.050489016 0.120373435 0.044155635 0.0019925667 -0.11681808 0.05396069 -0.013969253
-0.003725004 -0.028668946 0.09287148 -0.019373335 -0.09230099 -0.053090643 -0.0090223355 0.042517178
-0.09368584 0.021565707 0.0720795 0.08526898 0.122579165 0.10697514 -0.019529158 0.0045721433
0.024578005 -0.014239858 0.087597445 0.026871273 -0.07083329 0.07467757 -0.073909596 0.10204904
0.017497452 -0.101831615 0.013070263 -0.041636012 -0.093705066 -0.079771586 0.06870019 0.06849156

bias f4 [128]
00000000: b09c e8bd 4c16 d53c a0da e0bd b3e7 c43d
00000010: b5ea c23d 8198 b7bc b0e0 cfbd c1cc fa3c
00000020: 7241 893d e4ad e73c d58d eebd 0448 6c3d
00000030: fa22 503d e630 d43d f294 ef3b e295 edbd
00000040: 027b edbd a2ab e4bc fea0 e03c f762 ea3d
00000050: 7e29 fa3b 744e c6bd 95be f2bd 4f29 42bd
00000060: 9bc5 64bd 8006 84bc 7093 473d 09a9 57bc
00000070: d0b1 8b3d 2398 89bd 4dbe 2f3d be2a d73d
00000080: e647 ddbd f079 dabd 6226 d1bb 94da ae3d
00000090: e5f8 51bd 4629 b1bd 8224 ff3d f725 e3bd
000000a0: ee94 9cbc 0454 ccbd e0cf d93b 5c96 d6bd
000000b0: 5538 c23d b2c1 783d d23e bcbc 4b6e e13d
000000c0: db4c e0bd eee8 ba3d 3571 52bd 9e50 adbd
000000d0: 0d87 da3d b73d 09bd c5f9 aa3d 72b7 653d
000000e0: 6d8a f4bd b092 813d a161 dfbd 90c5 1e3d
000000f0: 784a bdbd bf67 c7bd dfe2 adbd b0e5 e2bd
00000100: f48d a2bd d915 debc fbb5 5c3d f520 4ebd
00000110: 46e8 f03d db22 89bc 65e1 c7bd 7d4c c2bd
00000120: 3005 fe3d 81f2 36ba b960 a23d eca0 d33d
00000130: f2a1 85bd fa86 583d eac8 adbc c1a0 b3bd
00000140: db50 233d 3e9c ab3d 4589 e53d f230 453d
00000150: 32c0 f8bd 8763 82bd d8e0 cfbc 0ad0 b53d
00000160: 16e3 2d3d 9b99 0d3d 84e5 debd 7cc0 9bbd
00000170: 2759 c0bd b007 9abd dd17 ff3c 7474 583d
00000180: 7130 973d 3d38 1e3d e73e 2fbc 64b3 523c
00000190: d170 70bd 8de1 d0bd ab83 3abc b015 03bd
000001a0: bbca f23d 6caf 6d3d 2006 c3bd 7c52 0b3d
000001b0: e76a e53d 59d1 5a3d 64a4 e6bd 3717 cabb
000001c0: 2de8 acbd 490d 7e3c 84a6 da3d 6e27 733d
000001d0: ac5b d23d 8656 ad3d 6280 38bd 865f 313d
000001e0: c8a5 983a 6e4a 6bbd e5af df3c 61a0 d93d
000001f0: c220 383d 776d 963d 3265 d6bc 82dc 4fbc
-0.11358011 0.026011609 -0.109791994 0.096145056 0.09517423 -0.022411587 -0.101502776 0.030615212
0.06701936 0.02828116 -0.11648146 0.057685867 0.050814606 0.10360889 0.007311457 -0.116008535
-0.115957275 -0.027913872 0.027420517 0.11444657 0.007634341 -0.096829325 -0.11852757 -0.047402676
-0.055852514 -0.01611638 0.04872459 -0.01316286 0.068210244 -0.06718471 0.042906094 0.10506199
-0.10804729 -0.10667789 -0.0063827494 0.08537784 -0.051262755 -0.086504504 0.12458135 -0.110912256
-0.019113984 -0.09976962 0.006647095 -0.104778975 0.09483401 0.060731597 -0.022979174 0.11007365
-0.10952159 0.09126459 -0.051377494 -0.08462642 0.1067029 -0.03350612 0.08348421 0.05608315
-0.11940465 0.063268065 -0.10907293 0.03876263 -0.092427194 -0.09736585 -0.08490538 -0.11078966
-0.07937232 -0.027110027 0.053884488 -0.0503244 0.11763053 -0.016740253 -0.097597875 -0.09487245
0.12403333 -0.0006978885 0.07928605 0.10333428 -0.06525029 0.0528631 -0.021213967 -0.08770896
0.03987203 0.0837941 0.11207823 0.04814238 -0.12146033 -0.063666396 -0.025375769 0.08877571
0.042452894 0.034570318 -0.108836204 -0.07605073 -0.093920045 -0.075209975 0.031139309 0.052845433
0.07382286 0.03862785 -0.010696149 0.012860153 -0.05870134 -0.101992704 -0.011383931 -0.032003105
0.11855074 0.058028623 -0.095226526 0.03401421 0.11202031 0.053422306 -0.11261824 -0.006167318
-0.084427215 0.015506097 0.106762916 0.059363775 0.10271391 0.08463769 -0.04504431 0.04330399
0.0011646086 -0.05744403 0.027305553 0.10626293 0.044953115 0.073450975 -0.0261713 -0.0126868505

weight f4 [3, 128]
00000000: ac46 983d ddd3 c4bc 69d7 833d a34a aabd
00000010: 9c26 07bd a47c 84bd 24a6 7c3d 5983 82bd
00000020: 6bfb a53c 23c4 58bc 8aee a23c 34c1 c73c
00000030: e89f ae3d 001f a5bd 16c3 2bbd 6de1 a4bd
00000040: 11cc 1dbd e50e 193d a006 903b db05 8b3d
00000050: 68e1 143d 5a81 8e3d 7ebf 1cbc 514a 3c3b
00000060: 1ac0 893d aaed 9d3c eb98 663d 11d5 593d
00000070: 031d 87bd b701 d33c 21f1 dfbc ef2a ec3d
00000080: 36a9 8fbd f6e9 24bd 6a55 83bd 5a99 21bd
00000090: 5e73 a4bd 10e0 b1bd 440c e7bc 5009 adbc
000000a0: d25f c4bc 8f07 c3bc 9a58 6bbb 5f07 193d
000000b0: 4aa8 9e3d 6156 a7bd 08fa e63d fe14 64bd
000000c0: 8cf0 06bb 69f9 843b 4584 94bd b607 39bd
000000d0: 1485 993d 2b95 493c 0f0e 503d 3972 643d
000000e0: 4b9b b2bd a62a 0bbd 5f38 bf3d 50f4 45bd
000000f0: 30c4 1b3d 7d1d 5fbc 99ca 47bd 0825 db3c
00000100: 3d72 5ebd 2af2 81bd d63f 933d 48df fcbc
00000110: 3eaf bf3d 6869 633d ae7a c63d d7fb 873c
00000120: 3770 be3c 8a60 b1bd 9fd3 003e 0de8 ddbc
00000130: f88d 8b3d 1781 38bd e467 3fbd fdd1 89bd
00000140: 7aa9 243d 9540 723d 1777 3d3d aa59 dfbd
00000150: ab44 85bd a036 f1bc 0f3d 473d 9dbb d3bc
00000160: 561e 263d d18f 5f3d b9c9 32bd b4f8 263c
00000170: f521 9e3d 447a 333d 2fd8 8dbd 52b3 253d
00000180: 6bef 88bd 724c ac3d 509d 053c 8028 273d
00000190: 16b4 e6bd fe6f 533c d713 d4bc e212 c9bc
000001a0: bd1c 943d cb61 073d c7dd 4ebb 3bc6 dfbc
000001b0: 8bfa 003d 3857 c6bc 30fc 9bbd 37d4 a6bd
000001c0: 748f 3bbd 6176 613d 90b8 15bd df7a e6bc
000001d0: 747c c13d f75d 1c3d 5f53 ea3c 7036 043d
000001e0: 0d49 983d 8ea7 003d 3de7 863d 5c08 df3d
000001f0: 28f4 1a3c be8c 90bd d4e3 e2bc 8f03 b9bd
00000200: 91e9 103d f27a 793d c2f3 163d d42a 89bd
00000210: 843a a2bc 419b 61bd 5359 83bd 19b9 86bd
00000220: 1949 023d 66b9 b33c 54ad e73d 0221 e43d
00000230: 1f9a c1bd 5a13 cabc 30b9 873d fcd4 5b3c
00000240: a9a8 20bd ea44 663c 330d d33d 7bc5 92bd
00000250: dbd5 dd3d 47d2 e8bc 6bd2 043d 12f6 35bc
00000260: 8b5e d1b9 aa91 9ebb 09a4 e7bc 58c9 89bd
00000270: eb3a 74bd 6c02 93bd 96b9 76bd 534e 123d
00000280: ea9e 75bd 6130 82bc 8e8c d73c a969 263b
00000290: d88a 7dbb e24c 5c3d 9d77 a63d 99ba 84bd
000002a0: ae10 b3bc 89d8 2e3d c1bf 91bd 9f84 6b3d
000002b0: e867 9b3d e42c 143d 5b15 c3bd daac a83d
000002c0: a678 74bc 5b90 7a3d 4ab2 533d 8836 b0bd
000002d0: 2224 38bd f857 d3bb 94d4 9dbd 2a4d 4dbd
000002e0: f0de aa3d 4f44 f63c cfcb 96ba f429 2f3d
000002f0: 435a d23d 3a63 023d a4d0 503b d727 e13d
00000300: 7991 493d 8f3a 07bb 9ceb 1abd d4b7 74bc
00000310: 006a 953d 6a70 8a3d e008 b8bd 4b1d 973d
00000320: 530d 9bba a3f4 50bd 5914 c1bc 1c27 debc
00000330: 5c3c 68bd 4dc2 513d 61a2 c4bd f53b 053e
00000340: 4a66 2bbd 08a7 1fbd e8c4 8e3d 17b3 873d
00000350: 1473 64bd a63c a1bd 58a7 663c e3b4 afbd
00000360: 83d9 ccbc b060 0cbd 82eb 6fbd a116 5ebd
00000370: 5036 7f3c 7572 c7bd 297b b7bc 48ba 843d
00000380: e5b5 ee3c e974 113d 0fc5 db3a 77f8 f23b
00000390: a655 1f3e aa7e 1cbd 0f66 e33b 3eab 783d
000003a0: 7cd9 583d 9dfc 3abd ab2d c6bc 60ee 79bc
000003b0: 7bf5 9e3c b196 e93c 3147 9bbc 106a 01bd
000003c0: 55c2 c83c 07b6 a9bd 89f8 803d 174d a73c
000003d0: acce 103d 0941 69bb 2450 5e3d 90e5 dcbc
000003e0: a2f3 83bc 934d 5e3a e305 8d3d d46f d6bd
000003f0: ec23 a63d 7543 5a3d 80a1 7e3d 8f9c 28bd
0.074353546 -0.024026806 0.064375706 -0.08315017 -0.032995805 -0.06469086 0.06168188 -0.06372709
0.020261487 -0.013230356 0.019889135 0.024384119 0.085265934 -0.080625534 -0.041934095 -0.08050809
-0.03852469 0.03736772 0.004395321 0.06788226 0.036347777 0.069582656 -0.00956714 0.002873082
0.067260936 0.019278366 0.056298178 0.05318171 -0.065973304 0.025757654 -0.027336659 0.115316264
-0.07014696 -0.040262185 -0.06412776 -0.039452888 -0.08029817 -0.08685315 -0.02820409 -0.021122605
-0.023971472 -0.023807315 -0.0035910965 0.037360545 0.07746942 -0.08170772 0.112781584 -0.055684082
-0.0020590154 0.0040580523 -0.07251791 -0.04517337 0.07496086 0.012303631 0.050794657 0.055772994
-0.08721026 -0.03397622 0.09336924 -0.048328698 0.038028896 -0.01361787 -0.048777197 0.026751056
-0.054308165 -0.06345017 0.0718991 -0.030868188 0.09359597 0.055520445 0.09691368 0.016599579
0.023246868 -0.086609915 0.12580727 -0.02708819 0.06814188 -0.045044985 -0.046729937 -0.06729505
0.040200688 0.05914362 0.04625615 -0.10905774 -0.06507238 -0.029444993 0.048642214 -0.025846297
0.040556274 0.054580513 -0.04364941 0.010191131 0.077213205 0.043817773 -0.069259994 0.040454216
-0.0668629 0.08413018 0.008155182 0.04081011 -0.112648174 0.012905119 -0.025888367 -0.024545137
0.07232044 0.033052247 -0.0031565295 -0.027316203 0.031488936 -0.024211511 -0.0761646 -0.081459455
-0.045791104 0.055044536 -0.036552966 -0.028134761 0.09447566 0.03817555 0.028604208 0.03227848
0.07435808 0.031409793 0.06587074 0.10890266 0.009457625 -0.070580944 -0.027696528 -0.09033882
0.035378996 0.060908265 0.03685356 -0.06697622 -0.019803293 -0.055079702 -0.064135216 -0.06578273
0.031807993 0.02193899 0.113123566 0.11139108 -0.094532244 -0.02466743 0.066271186 0.013417479
-0.039223347 0.014054516 0.10305252 -0.07166573 0.10831805 -0.02842058 0.032427233 -0.011106031
-0.00039934026 -0.004839142 -0.02827646 -0.067278564 -0.0596265 -0.07178196 -0.060235582 0.035719227
-0.059966005 -0.01589221 0.026312139 0.0025392568 -0.0038687494 0.05378426 0.08128283 -0.06480903
-0.02185854 0.042686973 -0.07116652 0.057499524 0.07588178 0.036175624 -0.095255576 0.08236094
-0.014921343 0.061172824 0.0516837 -0.08604151 -0.044956334 -0.0064496957 -0.07706562 -0.050122418
0.08343303 0.030061869 -0.0011504831 0.04276462 0.10271122 0.03183291 0.003186264 0.10993927
0.049211 -0.002063427 -0.03782235 -0.014936406 0.072956085 0.067597225 -0.08986068 0.07378634
-0.0011829532 -0.051014554 -0.023569273 -0.027118258 -0.05669819 0.05121069 -0.09601284 0.13011153
-0.041845597 -0.038977653 0.06971151 0.066259556 -0.05577381 -0.07872896 0.014077984 -0.08579423
-0.025006061 -0.034271896 -0.058574207 -0.0542208 0.015576914 -0.09738628 -0.022397595 0.06480843
0.029139468 0.035511885 0.0016767102 0.007414873 0.15560016 -0.038206734 0.0069396566 0.060710184
0.052941784 -0.045651067 -0.024191698 -0.015254587 0.019404164 0.028514238 -0.018954845 -0.03159529
0.024506727 -0.08286672 0.06297404 0.020422501 0.035353348 -0.0035591742 0.054275647 -0.026964933
-0.016107384 0.00084801874 0.068858884 -0.10470548 0.0811232 0.05328699 0.062165737 -0.04116493

bias f4 [3]
00000000: d9c6 dfba 7a93 5bbd a8c6 733d
-0.0017072811 -0.05360744 0.059515625
